hybrid_stock_model.pth (torch, 29093 bytes, 32 tensors)

mamba.A.weight f4 [10, 10]
0	0x3e9d1d59	0.30686453
1	0xbe765046	-0.2405406
2	0xbe0a589c	-0.13510364
3	0xbe302955	-0.17203267
4	0x3e8f2969	0.2796128
5	0x3dac39a8	0.084094346
6	0xbe4a7306	-0.1977044
7	0x3e4e6786	0.20156679
8	0x3cc628e0	0.024189413
9	0xbd50e278	-0.050997227
10	0x3e275812	0.1634219
11	0x3d982e7c	0.07430741
12	0x3e53a41e	0.20668074
13	0x3cdbc710	0.026828319
14	0xbe96284b	-0.29327616
15	0x3e669fb6	0.22521862
16	0x3e52433a	0.20533457
17	0x3e896fc5	0.26843086
18	0x3e43617e	0.19080159
19	0x3da8840c	0.08228311
20	0x3e3ff4ba	0.187457
21	0xbd90a9da	-0.070636466
22	0xbdd4e95a	-0.10396071
23	0x3e4f495e	0.20242831
24	0xbdde0800	-0.1084137
25	0xbe966248	-0.29371858
26	0x3d2755e8	0.04085341
27	0x3d53ca70	0.05170673
28	0xbd0692f8	-0.032855004
29	0x3e7af1b2	0.24506262
30	0x3d5215fe	0.051290505
31	0xbc92a92c	-0.017902933
32	0x3e76fd7a	0.24120131
33	0x3e59ac54	0.21257144
34	0x3d55dca6	0.05221238
35	0xbe2d5a10	-0.16928887
36	0xbd762e5a	-0.060102798
37	0xbd9cfdd7	-0.076656036
38	0xbe5098b2	-0.20370749
39	0xbe9a3fe4	-0.3012687
40	0x3e8a643b	0.27029595
41	0x3e6cf4e2	0.2314029
42	0x3e3b4d64	0.18291241
43	0xbe95d6c4	-0.29265416
44	0xbdd36502	-0.10322
45	0xbd6c0a18	-0.057626814
46	0xbdcbf426	-0.09958677
47	0x3e857cf3	0.2607189
48	0xbe0b8754	-0.13625842
49	0xbc3389c0	-0.010958135
50	0xbde2ea78	-0.110798776
51	0xbe04ecb0	-0.12980914
52	0xbd418490	-0.047245562
53	0x3e69eb1a	0.2284359
54	0x3dddd2b0	0.10831201
55	0xbe8a376c	-0.2699541
56	0x3e00a5ea	0.12563291
57	0x3db49808	0.0881806
58	0x3e4557a2	0.1927171
59	0x3da62a70	0.08113563
60	0x3e924af7	0.2857282
61	0x3e063b9a	0.13108674
62	0xbe681c76	-0.22667107
63	0x3e21f192	0.15814808
64	0xbd3c5248	-0.045976907
65	0xbd98c5c4	-0.07459596
66	0x3dcc2514	0.099680096
67	0x3d8a06ac	0.06739554
68	0xbdcfa652	-0.10139145
69	0xbe440bc4	-0.19145113
70	0x3e308e38	0.17241752
71	0x3e74fda2	0.23924878
72	0x3e7053ce	0.23469469
73	0x3e2eeefa	0.1708335
74	0x3e1f674c	0.15566748
75	0x3e678572	0.22609499
76	0x3e4cd0ce	0.20001528
77	0xbe9440a1	-0.28955558
78	0x3e39d8c8	0.18149102
79	0x3b502000	0.0031757355
80	0x3df4b9a8	0.119494736
81	0x3e8c7cef	0.27439067
82	0xbc7640c0	-0.015030086
83	0x3e9c2e71	0.30504182
84	0xbe5c5094	-0.21515113
85	0xbe922555	-0.28544107
86	0xbddad648	-0.10685402
87	0xbdf657ae	-0.12028442
88	0xbe884682	-0.26616293
89	0xbe00c678	-0.1257571
90	0x3b4e1500	0.0031445622
91	0xbe6a4ffe	-0.22882077
92	0xbe5a58f6	-0.21322998
93	0xbdde39da	-0.10850878
94	0xbe6b5f55	-0.22985585
95	0xbe48607c	-0.19568056
96	0x3e6440c6	0.22290334
97	0x3ddeb34c	0.10874042
98	0xbdfe5cf8	-0.12420076
99	0x3e78fb46	0.24314603

mamba.A.bias f4 [10]
0	0x3de4b6c0	0.11167669
1	0xbe88208d	-0.26587334
2	0xbe54de5e	-0.20787951
3	0xbd8a03e6	-0.06739025
4	0xbd6cb7c0	-0.057792425
5	0x3d4e1210	0.050310194
6	0xbd9979b2	-0.07493915
7	0xbcd84590	-0.026400357
8	0x3e0599be	0.13046929
9	0x3ea13429	0.31485108

mamba.B.weight f4 [10, 10]
0	0x3d4a0d33	0.049328994
1	0xbdb323ac	-0.08747038
2	0xbdabd303	-0.08389857
3	0x3e124e1d	0.1428761
4	0xbe1ae66d	-0.15126963
5	0x3e1a49f7	0.15067278
6	0xbe9d2b40	-0.3069706
7	0xbde78a44	-0.11305669
8	0x3e660c08	0.22465527
9	0x3e7d65aa	0.24745813
10	0xbe830890	-0.2559247
11	0x3d8c6174	0.06854525
12	0x3c951400	0.018198013
13	0x3cfa61f0	0.030564278
14	0xbe72506f	-0.23663495
15	0xbe364650	-0.1780026
16	0xbe42b210	-0.19013238
17	0xbe783023	-0.24237113
18	0x3da04e74	0.07827464
19	0x3dd95364	0.106116086
20	0xbe7a7bbc	-0.24461263
21	0xbe5cd446	-0.21565351
22	0xbd13d940	-0.036095858
23	0x3e04e9be	0.1297979
24	0xbdf54bb8	-0.11977333
25	0xbe42f9dd	-0.19040628
26	0x3e83cb61	0.25741103
27	0x3e555dda	0.20836583
28	0xbe742286	-0.23841295
29	0x3dd0bb74	0.10192004
30	0x3caf9390	0.021432668
31	0xbe787d56	-0.24266562
32	0xbe6b2424	-0.22963005
33	0x3e73179a	0.23739472
34	0x3e31e360	0.17371893
35	0xbe38bcc8	-0.18040764
36	0xbd3a1850	-0.045433342
37	0xbe9085c0	-0.28227043
38	0x3e0b8b78	0.13627422
39	0x3d8f3654	0.06992784
40	0xbe3b84f2	-0.18312433
41	0x3d6a6e30	0.05723399
42	0xbd7b82c8	-0.06140402
43	0x3e15f114	0.14642745
44	0x3e53d4b6	0.20686612
45	0xbe0ddc36	-0.13853535
46	0xbd5493f0	-0.051898897
47	0xbe277c6a	-0.16356054
48	0x3e0f2036	0.13977131
49	0xbe22b784	-0.15890318
50	0x3e81709d	0.2528123
51	0x3e72481e	0.23660323
52	0x3e82cb0b	0.25545534
53	0x3d280350	0.041018784
54	0x3e954fbf	0.29162404
55	0x3e2b3a10	0.16721368
56	0x3e7faa56	0.24967322
57	0x3dbbe9f0	0.091754794
58	0x3e4d3b8a	0.20042244
59	0x3c0f3300	0.008740187
60	0xbe69905b	-0.22808973
61	0xbdec2c9e	-0.115319476
62	0x3e75776e	0.2397134
63	0x3e35065e	0.1767821
64	0x3e4360a2	0.19079831
65	0x3d5af868	0.053459555
66	0xbe66cb3c	-0.22538465
67	0x3e3ea50e	0.18617651
68	0xbd4424c8	-0.04788664
69	0xbe999b59	-0.30001333
70	0xbddea5dc	-0.10871479
71	0xbd803710	-0.06260502
72	0x3c43ef3d	0.011958894
73	0xbe9721dd	-0.29518023
74	0x3e91afd6	0.28454465
75	0x3e8faff4	0.2806393
76	0x3ce71cdc	0.028212003
77	0x3e96e855	0.2947413
78	0xbe8151a3	-0.25257596
79	0xbe73a009	-0.23791517
80	0xbe9ecce1	-0.31015685
81	0x3e7c2886	0.24624833
82	0xbe43707d	-0.1908588
83	0xbe021bf9	-0.12705983
84	0x3e9d20c9	0.30689076
85	0xbe9cf454	-0.30655158
86	0xbdda326e	-0.1065415
87	0x3e8e8409	0.2783511
88	0xbd92338e	-0.071387395
89	0xbaf5d300	-0.00187549
90	0xbd85e296	-0.065373585
91	0x3e9854ba	0.2975214
92	0xbe0b8a46	-0.13626966
93	0x3e4f1b2e	0.20225212
94	0x3d72476b	0.05915014
95	0x3e399c8a	0.18126121
96	0x3e20b463	0.15693812
97	0xbe0d0283	-0.1377049
98	0xbdd3d1fa	-0.10342784
99	0x3dcc1576	0.09965031

mamba.B.bias f4 [10]
0	0xbe9e06ad	-0.30864468
1	0xbe4c1ff0	-0.19934058
2	0x3e8006a9	0.2500508
3	0xbe82a18d	-0.25513878
4	0x3d9c7050	0.076386094
5	0xbe448b86	-0.19193849
6	0x3e575912	0.21030071
7	0xbe9f6738	-0.31133437
8	0x3c0a9540	0.008458436
9	0xbca0952b	-0.019602379

mamba.norm.weight f4 [10]
0	0x3f800c18	1.0003691
1	0x3f802560	1.0011406
2	0x3f7ee6af	0.99570745
3	0x3f830f7d	1.0239102
4	0x3f819434	1.0123353
5	0x3f8086ba	1.0041115
6	0x3f801d2f	1.0008906
7	0x3f7e853e	0.9942206
8	0x3f7e0ba0	0.9923649
9	0x3f7f87ce	0.99816597

mamba.norm.bias f4 [10]
0	0xba26864a	-0.0006352408
1	0xba73d7c8	-0.0009301868
2	0x3bb78f3b	0.005601791
3	0xbcbba32b	-0.022904953
4	0x3c802815	0.015644113
5	0xbb909515	-0.004412303
6	0x382b8874	4.089666e-05
7	0xbbadf5c4	-0.0053088386
8	0xbb566e1c	-0.003271944
9	0x3b131300	0.0022441745

encoder_layer.self_attn.in_proj_weight f4 [30, 10]
0	0xbc663800	-0.014051437
1	0x3e7ab7d8	0.24484193
2	0xbe7f6322	-0.2494016
3	0x3e986f62	0.29772478
4	0xbe941147	-0.28919432
5	0x3dd7bcb8	0.10534042
6	0x3e518a40	0.20462894
7	0xbd1cc3a0	-0.0382725
8	0x3e4ea0e0	0.20178556
9	0xbdc21d88	-0.09478289
10	0x3e707968	0.23483813
11	0x3e80f8a6	0.25189704
12	0xbd3cab30	-0.046061695
13	0xbd147fb8	-0.036254615
14	0xbd6e8a58	-0.058237404
15	0x3cb3a9d0	0.021931559
16	0x3e8430a2	0.25818354
17	0xbd910a20	-0.07082009
18	0xbdd9301c	-0.10604879
19	0xbd75ff00	-0.06005764
20	0xbe291d75	-0.16515143
21	0x3e91d622	0.28483683
22	0xbe444393	-0.19166403
23	0xbd4a7520	-0.049428105
24	0x3d9a47cc	0.075332254
25	0x3ea64df8	0.3248136
26	0x3e3655d4	0.17806178
27	0xbe55dc78	-0.20884883
28	0xbeb473a7	-0.35244486
29	0xbe2d298d	-0.16910382
30	0xbe1dfefb	-0.15429299
31	0x3ea06c64	0.31332695
32	0xbe37c8e8	-0.17947733
33	0x3eb21c92	0.34787422
34	0xbe8d492d	-0.2759489
35	0xbd364740	-0.044501543
36	0xbe48832b	-0.19581287
37	0xba9b6000	-0.0011854172
38	0x3ec32c4c	0.38119733
39	0xbd4e83d0	-0.050418675
40	0x3dd4645c	0.103707045
41	0xbca74de0	-0.020422876
42	0x3e8cda58	0.27510333
43	0x3eacafe2	0.33727938
44	0x3dd8ca24	0.1058543
45	0xbe8e5d5b	-0.278056
46	0x3e28e3d8	0.16493165
47	0x3d50c708	0.05097106
48	0xbe98e780	-0.2986412
49	0x3d2874c0	0.041126966
50	0xbce3ea50	-0.02782169
51	0x3e80404a	0.2504905
52	0x3e9da9ae	0.30793518
53	0xbe4ce307	-0.20008479
54	0xbe8bc456	-0.2729823
55	0xbe7ad1af	-0.2449405
56	0xbea2376c	-0.3168291
57	0xbc615ce0	-0.013755053
58	0x3e33b6ec	0.17550248
59	0xb9517800	-0.00019976497
60	0x3db3160c	0.087444395
61	0x3e2512cc	0.16120452
62	0xbd162e08	-0.036664993
63	0xbe8a57b9	-0.27020052
64	0x3deeb668	0.11655885
65	0xbea39ab9	-0.31953982
66	0x3ebbf2b8	0.36708617
67	0x3e951d12	0.2912374
68	0x3e088bf0	0.13334632
69	0xbe92315c	-0.28553283
70	0x3dc61570	0.09672058
71	0x39387000	0.0001758933
72	0x3d3a5fe8	0.04550162
73	0x3ebee9b2	0.3728767
74	0xbd7ea4b0	-0.062168777
75	0xbe7b7aca	-0.24558559
76	0x3ddd49f0	0.10805118
77	0xbe981684	-0.29704678
78	0x3d2bc280	0.041933537
79	0x3e5eaadc	0.21744865
80	0xbec0ce15	-0.37657228
81	0x3e0faf80	0.14031792
82	0x3e1975e8	0.14986384
83	0xbe6809ec	-0.22660035
84	0x3cf8f050	0.030388027
85	0x3e252cfc	0.16130441
86	0xbdfc2650	-0.12311995
87	0xbe43acac	-0.19108838
88	0x3e3c5654	0.18392307
89	0xbdec413c	-0.1153588
90	0x3e8c5aee	0.27413124
91	0x3dc30404	0.0952225
92	0xbeafd5d9	-0.3434284
93	0xbdda832c	-0.1066955
94	0xbd9261a0	-0.07147527
95	0x3e15146c	0.14558572
96	0x3d3f1ad0	0.04665643
97	0x3e7683a8	0.2407366
98	0xbe743a24	-0.23850304
99	0x3d81903c	0.06326339
100	0xbe04e34e	-0.12977335
101	0x3e4a395c	0.19748443
102	0x3e913962	0.28364092
103	0xbe80281a	-0.25030595
104	0x3ea25d18	0.3171165
105	0xbe12c07f	-0.14331244
106	0xbcf708b0	-0.03015551
107	0x3d8ad5f4	0.067790896
108	0x3e859e92	0.26097542
109	0xbe820ca4	-0.2540027
110	0xbe0ae1e8	-0.13562739
111	0x3e0950b0	0.13409686
112	0xbd5a9870	-0.053368032
113	0x3e9ce840	0.30645943
114	0x3e82842a	0.25491458
115	0x3e6cf4d4	0.2314027
116	0x3e96c1a6	0.29444617
117	0x3e83c446	0.25735682
118	0x3ec6127a	0.38685971
119	0xbead65bc	-0.3386668
120	0x3e9bb270	0.30409575
121	0xbe624d08	-0.22099698
122	0xbe2de536	-0.16981968
123	0x3d684ea0	0.056715608
124	0x3cd5ab50	0.026082665
125	0xbe02088c	-0.12698573
126	0x3e34debc	0.17663091
127	0xbdbcdd0c	-0.09221849
128	0xbd628ad8	-0.055308193
129	0xbdc4e6d0	-0.096143365
130	0x3e490b08	0.19633114
131	0x3df7bfd8	0.12097138
132	0x3e340c8c	0.17582911
133	0x3ec4b4de	0.3841924
134	0x3ec5b538	0.3861482
135	0xbddbcd2c	-0.10732493
136	0x3eac69e0	0.33674526
137	0x3dc136cc	0.0943428
138	0x3e8e51e8	0.27796865
139	0xbe9c9b9d	-0.30587474
140	0x3dce94d8	0.100869834
141	0xbea685c9	-0.32523945
142	0x3db1c8b0	0.08680856
143	0x3e649844	0.2232371
144	0x3b29a780	0.0025887191
145	0x3e440e7c	0.1914615
146	0xbeaae1f9	-0.33375528
147	0x3e5b8c2c	0.2144019
148	0x3e845304	0.25844586
149	0x3e677088	0.22601521
150	0xbdd3ea50	-0.10347426
151	0x3e6cf970	0.23142028
152	0x3e907868	0.28216863
153	0xbddeca28	-0.10878402
154	0x3e0ca798	0.13735807
155	0xbec4290d	-0.3831257
156	0xbda425c8	-0.08015019
157	0xbe1c6bea	-0.15275541
158	0xbea84b9a	-0.3287018
159	0xbdbff230	-0.093723655
160	0x3e90da0a	0.2829135
161	0x3e4d22e0	0.20032835
162	0x3ebe9304	0.3722154
163	0x3e956c90	0.2918439
164	0xbc376040	-0.011192381
165	0xbe04bcd4	-0.12962657
166	0xbea1baac	-0.31587732
167	0xbeb88169	-0.36036232
168	0x3d4c3958	0.049859375
169	0xbcc53bd0	-0.024076372
170	0x3c9b6e30	0.01897344
171	0x3e7868e8	0.24258769
172	0x3e71d0d4	0.23614818
173	0xbe0a5dae	-0.13512298
174	0xbe43d474	-0.19124013
175	0x3e332878	0.17495906
176	0x3dc10ad4	0.094258934
177	0x3e13cb28	0.14432967
178	0x3da7e8ac	0.081986755
179	0x3dfe9b28	0.124319375
180	0x3e2deea8	0.16985571
181	0xbbf08580	-0.007340133
182	0x3c670280	0.014099717
183	0x3e9f1610	0.3107152
184	0x3ebf320a	0.37342864
185	0x3e6a5078	0.22882259
186	0xbe0d040b	-0.13771074
187	0xbc823470	-0.015894145
188	0x3cf6efa0	0.030143559
189	0x3eafb4e8	0.34317708
190	0xbc1fcaa0	-0.009752899
191	0xbe08a6b6	-0.13344845
192	0xbe93f3c3	-0.28896913
193	0x3d33fdb8	0.043943137
194	0xbe6cbd1f	-0.23119019
195	0x3eb6a004	0.35668957
196	0xbce607d0	-0.028079897
197	0xbcfcb5f0	-0.030848473
198	0x3eb013c0	0.34390068
199	0xbc2a1200	-0.010380268
200	0xbe28a8bf	-0.16470622
201	0x3e3bf204	0.1835404
202	0x3c97dea0	0.018538773
203	0x3e3eaad4	0.18619853
204	0x3e985344	0.29751027
205	0xbe2f67ea	-0.17129484
206	0xbe8342e4	-0.2563697
207	0x3e5c6fe0	0.21527052
208	0xbe88423d	-0.26613036
209	0x3dcdd000	0.100494385
210	0x3e96219c	0.29322517
211	0xbe82ddca	-0.25559837
212	0xbdf97f80	-0.12182522
213	0x3df891c0	0.121371746
214	0xbdacd574	-0.084391505
215	0x3e3700b8	0.17871368
216	0x3e986d44	0.29770863
217	0x3ddcf020	0.10787988
218	0x3e2c8dc0	0.16850948
219	0xbebac536	-0.36478585
220	0xbd6a95d8	-0.05727181
221	0xbea99d45	-0.331278
222	0xbe9495d6	-0.29020566
223	0xbe2ccb86	-0.16874513
224	0x3e7f9dec	0.24962586
225	0x3ec0e7b8	0.37676787
226	0x3eadcbd4	0.3394457
227	0x3ea2e8a8	0.31818128
228	0xbe968248	-0.29396272
229	0xbeb17db2	-0.3466621
230	0x3e01cff0	0.12676978
231	0x3eb5773e	0.35442537
232	0xbe5ff76b	-0.21871726
233	0x3e829e56	0.25511426
234	0x3e5e7c28	0.2172705
235	0xbeb2f51e	-0.34952635
236	0xbe3408d8	-0.17581499
237	0x3e51d1e4	0.20490223
238	0xbd714808	-0.058906585
239	0xbc1ae800	-0.009454727
240	0xbe493e51	-0.19652678
241	0xbdd4c704	-0.10389522
242	0x3e463aa8	0.19358313
243	0xbe207084	-0.15667921
244	0x3ba97500	0.005171418
245	0x3e121bd8	0.14268434
246	0x3ec2762a	0.37980777
247	0x3e1b5bd4	0.15171748
248	0xbd3ae4d0	-0.04562837
249	0x3ea49646	0.321459
250	0x3c806710	0.015674144
251	0x3e9e5510	0.30924273
252	0xbe647a83	-0.2231236
253	0xbc781c20	-0.015143424
254	0x3ec0db1c	0.37667167
255	0xbe2e37ca	-0.1701347

encoder_layer.self_attn.in_proj_bias f4 [30]
0	0x00000000	0.0
1	0x00000000	0.0
2	0x00000000	0.0
3	0x00000000	0.0
4	0x00000000	0.0
5	0x00000000	0.0
6	0x00000000	0.0
7	0x00000000	0.0
8	0x00000000	0.0
9	0x00000000	0.0
10	0x00000000	0.0
11	0x00000000	0.0
12	0x00000000	0.0
13	0x00000000	0.0
14	0x00000000	0.0
15	0x00000000	0.0
16	0x00000000	0.0
17	0x00000000	0.0
18	0x00000000	0.0
19	0x00000000	0.0
20	0x00000000	0.0
21	0x00000000	0.0
22	0x00000000	0.0
23	0x00000000	0.0
24	0x00000000	0.0
25	0x00000000	0.0
26	0x00000000	0.0
27	0x00000000	0.0
28	0x00000000	0.0
29	0x00000000	0.0

encoder_layer.self_attn.out_proj.weight f4 [10, 10]
0	0xbe46e526	-0.1942335
1	0x3e665bbe	0.22495934
2	0x3d37e030	0.044891536
3	0xbdcf4a24	-0.10121563
4	0xbcafd2b0	-0.021462768
5	0x3e9f032d	0.3105711
6	0xbe8b72cb	-0.27236018
7	0x3c68c900	0.014208078
8	0x3d3bdc48	0.045864373
9	0xbe4a92cb	-0.1978256
10	0xbe6bf68f	-0.23043273
11	0x3e7b1362	0.24519113
12	0xbb98a080	-0.004657805
13	0x3e0ff0aa	0.1405665
14	0xbd9042c2	-0.07043983
15	0xbe5d7aed	-0.21628924
16	0xbe53091f	-0.20608948
17	0xbe8768d9	-0.2644718
18	0x3e490596	0.19631037
19	0xbe79c275	-0.24390586
20	0x3e8d3ec1	0.2758694
21	0xbdba8ccc	-0.09108886
22	0xbe494fde	-0.19659373
23	0xbd202fa8	-0.03910795
24	0xbd236470	-0.039890707
25	0xbe84f8af	-0.2597098
26	0xbe4523a1	-0.19251873
27	0xbe8d2faf	-0.27575442
28	0xbe81c395	-0.2534453
29	0xbe8214dd	-0.25406542
30	0x3dc394b4	0.09549847
31	0xbc974f10	-0.018470317
32	0x3e4e5b86	0.20152101
33	0x3e73f072	0.23822191
34	0xbbe026c0	-0.006840557
35	0x3e3ba9b6	0.18326458
36	0xbd74c418	-0.059757322
37	0x3e3ca212	0.184212
38	0xbe807ea1	-0.2509661
39	0x3d8b4d38	0.06801838
40	0xbde502f8	-0.11182207
41	0xbdd544e6	-0.10413532
42	0xbe65f7d1	-0.22457816
43	0x3dff179c	0.12455675
44	0xbe33c16f	-0.17554258
45	0x3e6176be	0.22017953
46	0x3e99eb01	0.30062106
47	0x3d9f92c0	0.07791662
48	0xbdda1cac	-0.1065
49	0xbe866714	-0.26250517
50	0xbdb0c8fe	-0.08632086
51	0xbe0ae210	-0.13562799
52	0x3e07dd0e	0.1326792
53	0x3e15c87e	0.14627263
54	0x3dcc6c50	0.099815965
55	0xbe8ccd4e	-0.27500385
56	0x3e297276	0.1654757
57	0xbe885af1	-0.26631883
58	0x3e9d7003	0.3074952
59	0x3dc04f18	0.09390086
60	0xbe30f030	-0.17279124
61	0xbe89faf6	-0.2694928
62	0xbbbb8f00	-0.005723834
63	0x3e6fa06a	0.23401037
64	0x3e50d65e	0.20394275
65	0x3e7eceea	0.24883619
66	0x3e761ba6	0.24033985
67	0xbe9c8f23	-0.30577955
68	0x3e2d2cb8	0.1691159
69	0xbcfdaf20	-0.030967295
70	0x3e4e1686	0.2012578
71	0xbe8283e6	-0.25491256
72	0x3e2e84e0	0.17042875
73	0xbea0b881	-0.31390765
74	0xbe801e92	-0.25023323
75	0x3c8b3d60	0.01699704
76	0xbd860480	-0.06543827
77	0xbe2c2351	-0.16810347
78	0x3e302252	0.17200592
79	0xbd4e49c0	-0.050363302
80	0xbb9b53c0	-0.0047402084
81	0xbdc3ddb4	-0.09563771
82	0x3e863f55	0.26220194
83	0xbe8f7c14	-0.28024352
84	0x3e45e7c6	0.19326696
85	0xbe6b21c4	-0.229621
86	0x3e1bf29c	0.15229267
87	0xbe185beb	-0.14878814
88	0x3bf98ec0	0.007615894
89	0x3e8cbb29	0.27486542
90	0xbc0b96e0	-0.008519858
91	0x3e9e368b	0.30900988
92	0x3e26b1d2	0.1627877
93	0x3e04336a	0.12910238
94	0x3e9c5dc7	0.30540296
95	0x3e6b9cea	0.23009077
96	0xbdde51be	-0.10855435
97	0xbe4dfa93	-0.20115118
98	0xbd99e064	-0.07513502
99	0xbe832050	-0.2561059

encoder_layer.self_attn.out_proj.bias f4 [10]
0	0x00000000	0.0
1	0x00000000	0.0
2	0x00000000	0.0
3	0x00000000	0.0
4	0x00000000	0.0
5	0x00000000	0.0
6	0x00000000	0.0
7	0x00000000	0.0
8	0x00000000	0.0
9	0x00000000	0.0

encoder_layer.linear1.weight f4 [64, 10]
0	0xbe5bb01a	-0.21453896
1	0x3dd6c454	0.10486665
2	0x3c9efd40	0.019407868
3	0xbe592965	-0.21207197
4	0xbe94c338	-0.2905519
5	0x3cac48f0	0.021030873
6	0x3d77c7d0	0.06049329
7	0xbd869e70	-0.06573188
8	0xbd97eae0	-0.07417846
9	0xbd723230	-0.059129894
10	0xbd0ac5e8	-0.033880144
11	0x3e9a4cb9	0.3013666
12	0xbd2fee18	-0.042951673
13	0xbd3283a0	-0.04358256
14	0x3e1b0d38	0.15141761
15	0xbd721810	-0.05910498
16	0xbbeb0780	-0.007172525
17	0xbe73c815	-0.23806794
18	0x3e5ddf3e	0.21667191
19	0x3d3c2460	0.045933127
20	0xbdf8f874	-0.12156764
21	0x3e7a00b2	0.24414328
22	0x3e07edf0	0.1327436
23	0x3d0629a0	0.03275454
24	0xbe8b7067	-0.27234194
25	0xbe65f517	-0.22456776
26	0x3ddf00e0	0.10888839
27	0x3d87e0f8	0.06634706
28	0x3dac8c8c	0.08425245
29	0xbbba2e80	-0.0056818128
30	0x3e0cf280	0.13764381
31	0xbdaab662	-0.08335568
32	0x3e2bb6d4	0.16768962
33	0x3e34ccb0	0.17656207
34	0xbe9a29c6	-0.30109996
35	0xbdd90798	-0.105971515
36	0x3e3073c8	0.17231667
37	0xbdb98c1e	-0.09059928
38	0x3e04fb66	0.12986526
39	0xbe8cb658	-0.27482867
40	0xbea10184	-0.3144647
41	0x3e5e67b2	0.21719244
42	0xbe6640cc	-0.22485656
43	0xbdc6f34a	-0.097143725
44	0x3e5d367e	0.21602818
45	0x3d0eec78	0.034893483
46	0x3e01a0c4	0.12658983
47	0xbcc19180	-0.02362895
48	0x3e90ee03	0.2830659
49	0x3e6a0f52	0.22857407
50	0xbdc521b8	-0.09625572
51	0x3e681242	0.22663215
52	0xbb193280	-0.0023376048
53	0x3dd3fa58	0.10350484
54	0x3c998a60	0.01874274
55	0x3e63c6fa	0.22243872
56	0xbdb52168	-0.08844262
57	0xbdb1f7f2	-0.0868987
58	0xbe96176d	-0.29314747
59	0xbe67e5cb	-0.22646253
60	0x3e27b48c	0.16377467
61	0xbe4644cc	-0.19362181
62	0xbe254142	-0.16138175
63	0xbcec89b0	-0.028874248
64	0xbe5cda22	-0.21567586
65	0x3dfad600	0.122478485
66	0xbe38943c	-0.18025297
67	0xbe6490fa	-0.22320929
68	0x3e5d2206	0.2159501
69	0xbe5598fa	-0.20859137
70	0xbe9e5ca7	-0.30930063
71	0xbe3065a2	-0.1722627
72	0x3d97dea4	0.07415512
73	0x3d538a20	0.0516454
74	0xbe9cbcbd	-0.30612746
75	0x3e97a885	0.29620758
76	0x3dd107d8	0.10206574
77	0xbddb5e64	-0.10711363
78	0xbd2231c8	-0.039598256
79	0x3e8daf07	0.27672598
80	0xbdde378e	-0.1085044
81	0x3e40b6f2	0.18819788
82	0xbd90a6ec	-0.07063088
83	0xbe9daef2	-0.30797535
84	0xbe8efff3	-0.2792965
85	0xbcccee30	-0.02501592
86	0xbda981c8	-0.08276707
87	0xbd4f2090	-0.050568163
88	0xbe1a0c36	-0.1504372
89	0x3e685cd6	0.22691664
90	0x3e8361f9	0.25660685
91	0x3d89f8d4	0.06736913
92	0xbe8dccd6	-0.2769534
93	0xbe4601f2	-0.1933668
94	0xbe800f38	-0.2501161
95	0x3d9ec404	0.07752231
96	0x3e001752	0.12508896
97	0xbe6a357f	-0.2287197
98	0xbe4bfe4a	-0.19921222
99	0x3e476a4e	0.19474146
100	0x3e00453e	0.12526414
101	0xbe37b18a	-0.1793882
102	0x3e1afff2	0.15136698
103	0x3d4b0170	0.049561918
104	0x3da22c88	0.0791865
105	0xbe49e4d2	-0.19716194
106	0x3e5e092a	0.21683183
107	0xbe489f43	-0.19592004
108	0x3e1dcaa6	0.15409335
109	0xbe5cca97	-0.21561657
110	0x3c2b1220	0.010441333
111	0xbdf675f6	-0.12034218
112	0xbcd9c430	-0.026582807
113	0x3e70311a	0.23456231
114	0xbe69ee23	-0.22844748
115	0x3e98f49f	0.2987413
116	0xbe9ec643	-0.31010637
117	0xbe6d9629	-0.23201813
118	0x3d570c88	0.052502185
119	0xbdba068a	-0.090832785
120	0x3de2f1b8	0.110812604
121	0x3bf73ac0	0.0075448453
122	0x3e5cf4b6	0.21577725
123	0x3e8f0ead	0.27940884
124	0xbe40e38f	-0.18836807
125	0xbdac7f9c	-0.08422777
126	0xbd114720	-0.03546822
127	0x3d83e488	0.06440073
128	0xbe6c32ae	-0.23066208
129	0x3e78d69e	0.2430062
130	0x3e18d27c	0.14924043
131	0x3e38e2f2	0.18055323
132	0xbce5db60	-0.028058708
133	0x3e8c6ddf	0.27427575
134	0x3e9f2be9	0.31088188
135	0xbd901308	-0.0703488
136	0xbda1a0ec	-0.078920215
137	0xbea07280	-0.31337357
138	0x3e2603b8	0.16212356
139	0x3d861814	0.06547561
140	0xbe55c151	-0.20874526
141	0xbe86d518	-0.26334453
142	0xbe1ae0b0	-0.15124774
143	0x3e8b4989	0.2720454
144	0xbd0acc38	-0.033886164
145	0xbe59af4c	-0.21258277
146	0xbe92782b	-0.28607306
147	0xbe1b531f	-0.15168427
148	0xbdb08928	-0.086199105
149	0xbdecfb78	-0.11571401
150	0x3bcfb600	0.0063388348
151	0x3e9987ff	0.2998657
152	0xbe0c325e	-0.13691089
153	0x3e3836c6	0.17989644
154	0xbc6fe800	-0.014642715
155	0x3e49236e	0.19642422
156	0x3dbb374c	0.091414064
157	0xbe3e757b	-0.18599503
158	0x3e323330	0.17402339
159	0xbe085b93	-0.13316183
160	0x3d21ae30	0.03947276
161	0x3e95516d	0.29163685
162	0x3e89aa4d	0.26887742
163	0xbe251499	-0.16121139
164	0x3e74d5ae	0.23909637
165	0x3e7a02c2	0.24415115
166	0x3e30b450	0.17256284
167	0xbd89c256	-0.0672652
168	0xbadab300	-0.0016685426
169	0x3e163f20	0.14672518
170	0xbd4410c8	-0.047867566
171	0x3db7674c	0.08955249
172	0xbe19062b	-0.14943759
173	0x3ddd05b0	0.107921004
174	0xbd9955fc	-0.07487103
175	0xbe93f029	-0.28894165
176	0x3e832b97	0.25619194
177	0x3d9e699c	0.07734987
178	0xbe224ea3	-0.1585031
179	0x3d2f91b8	0.042863578
180	0xbe809d20	-0.25119877
181	0x3e565f86	0.20934877
182	0xbc5577a0	-0.013029009
183	0xbe8d80a8	-0.2763722
184	0x3e435052	0.19073609
185	0xbce544e0	-0.027986944
186	0x3e51471e	0.20437285
187	0x3e5180b6	0.20459256
188	0x3e97ff69	0.2968705
189	0x3dca7d74	0.098872095
190	0x3ea18041	0.31543162
191	0xbdda11a0	-0.10647893
192	0xbe5d8f4e	-0.21636698
193	0xbdc99e66	-0.09844665
194	0xbd852524	-0.06501225
195	0x3e87c31d	0.26516047
196	0x3e0873ea	0.13325468
197	0x3e8f32e7	0.27968523
198	0xbe16ce76	-0.14727196
199	0xbe8d614e	-0.276133
200	0xbe8915c4	-0.26774418
201	0xbc3088e0	-0.010774821
202	0xbe80c6ce	-0.25151676
203	0x3d9c316c	0.07626614
204	0xbe9b2b6a	-0.3030656
205	0xbe3d8631	-0.18508221
206	0x3e9bc003	0.3041993
207	0x3e6646ae	0.224879
208	0x3dfcbfa0	0.12341237
209	0x3e2898aa	0.16464487
210	0xbe29ef3c	-0.16595167
211	0xbe8f90a8	-0.2804005
212	0xbe047772	-0.1293619
213	0x3e3e2162	0.18567422
214	0xbd6567f0	-0.056007326
215	0xbddab9e6	-0.106799886
216	0xbe0d8051	-0.1381848
217	0xbe7db962	-0.24777749
218	0xbe93a74f	-0.28838584
219	0xbe128054	-0.14306766
220	0x3e698bfe	0.22807309
221	0x3c6e02c0	0.014527023
222	0xbe5fef1a	-0.21868554
223	0xbce42610	-0.02785018
224	0xbc2eec40	-0.010676444
225	0xbe0d2e62	-0.13787225
226	0x3e87f075	0.26550642
227	0x3e918901	0.28424838
228	0x3e68c2ee	0.2273061
229	0x3dfe559c	0.124186724
230	0xbe9dcc7f	-0.3082008
231	0xbdfe08bc	-0.1240401
232	0xbe3eed08	-0.18645108
233	0x3e460dd2	0.1934121
234	0xbe947315	-0.2899405
235	0x3e582ee2	0.21111634
236	0x3cba37f0	0.022731751
237	0x3e41c592	0.18923023
238	0x3df2bdd0	0.1185261
239	0x3de28244	0.110600024
240	0xbd3d7200	-0.046251297
241	0x3e865b0f	0.26241347
242	0x3e267a2c	0.16257542
243	0xbd5b0cc0	-0.053478956
244	0x3e266562	0.16249612
245	0x3ea16109	0.31519344
246	0xbe5c04d7	-0.21486221
247	0xbe857b4f	-0.2607064
248	0xbe8ede14	-0.27903807
249	0x3e533f26	0.20629558
250	0xbe336dda	-0.17522374
251	0xbe34fb1d	-0.17673917
252	0x3e3205d6	0.17385039
253	0xbe79850a	-0.24367157
254	0xbd851444	-0.06498006
255	0xbe0e270e	-0.13882086

encoder_layer.linear1.bias f4 [64]
0	0x3e355b30	0.17710567
1	0x3e51814e	0.20459482
2	0x3e6f6156	0.23376974
3	0xbe8d4935	-0.27594915
4	0x3d4e18b8	0.050316542
5	0x3e525862	0.20541528
6	0x3e47bb22	0.19504979
7	0xbd645fa0	-0.055755258
8	0x3d169ce0	0.0367707
9	0xbdbd4508	-0.09241682
10	0xbe3418aa	-0.17587534
11	0xbe8219dd	-0.25410357
12	0x3d74e718	0.0597907
13	0x3e902589	0.28153637
14	0xbdb56722	-0.08857562
15	0xbd9e95bc	-0.07743403
16	0x3e84d0cb	0.25940546
17	0x3d6da198	0.058015436
18	0xbdbde3ea	-0.09271987
19	0x3da74240	0.08166933
20	0xbe81ea06	-0.25373858
21	0xbe8a6600	-0.27030945
22	0xbc3079a0	-0.010771185
23	0xbdbb6c36	-0.09151499
24	0x3e191e5c	0.14952987
25	0xbe77a1fe	-0.24182889
26	0xbe7c2344	-0.24622828
27	0xbdc7274a	-0.09724291
28	0xbd4e8b08	-0.05042556
29	0x3e8a0559	0.26957205
30	0xbdf2c56e	-0.11854063
31	0xbe8db606	-0.27677935
32	0x3e81653f	0.25272557
33	0xbe4e6b94	-0.20158225
34	0x3ea1a9f7	0.31574985
35	0xbe07e1d8	-0.13269746
36	0x3cf379c0	0.02972114
37	0xbd3ad090	-0.045609057
38	0x3dd03d1c	0.10167906
39	0xbd021828	-0.03176132
40	0x3e4c968a	0.19979301
41	0x3e0b3492	0.13594273
42	0x3b9e8f40	0.004838854
43	0x3e7ddf9a	0.24792328
44	0x3db8b520	0.09018922
45	0xbe4773b8	-0.19477737
46	0x3e5df412	0.21675137
47	0xbe9463ef	-0.28982493
48	0x3e8f1d2f	0.27951953
49	0xbe4a536e	-0.19758388
50	0x3db683ec	0.08911881
51	0xbe80b23b	-0.2513598
52	0xbe2ccd3e	-0.16875169
53	0xbe0186df	-0.12649105
54	0xbe35876e	-0.17727444
55	0x3e6a1bc2	0.22862151
56	0x3e2553fa	0.16145316
57	0x3e31ffba	0.17382708
58	0xbda68a1a	-0.081318095
59	0x3e34310c	0.17596835
60	0x3e8e4e39	0.27794054
61	0x3e28de0e	0.16490957
62	0x3e4ada7e	0.1980991
63	0xbcfa0ee0	-0.030524671

encoder_layer.linear2.weight f4 [10, 64]
0	0x3d818880	0.063248634
1	0x3d94597c	0.0724363
2	0x3ddbeab2	0.10738124
3	0x3da11fb0	0.07867372
4	0x3dcd9f76	0.100401804
5	0xbdbac7da	-0.0912015
6	0x3db14afa	0.08656879
7	0xbdb0b854	-0.08628908
8	0xbdfd8066	-0.12378006
9	0xbde9292c	-0.11384806
10	0xbd4c3c98	-0.049862474
11	0x3dae8b10	0.08522618
12	0xbdb465c6	-0.08808474
13	0xbda5995c	-0.080858916
14	0xbdf08f30	-0.11746061
15	0x3d8ff2e0	0.070287466
16	0x3dc9f1d0	0.09860575
17	0x3cc5c4b0	0.02414164
18	0xbd81227a	-0.06305404
19	0x3dde4482	0.108529106
20	0x3dbd2e5c	0.09237358
21	0xbc545ce0	-0.012961596
22	0x3dc87ec4	0.097898036
23	0xbb6742c0	-0.0035287589
24	0x3dd3a958	0.10335034
25	0xbceff7b0	-0.029292911
26	0x3d8d25aa	0.068919495
27	0x3a3c6300	0.0007186383
28	0xbcc10b68	-0.02356501
29	0xbdd314ea	-0.103067234
30	0xbdff3fec	-0.12463364
31	0x3de740b2	0.112916365
32	0x3d70b820	0.058769345
33	0x3d9f1712	0.07768072
34	0x3c2b07a0	0.01043883
35	0xbdc90708	-0.09815794
36	0xbdff18d2	-0.12455906
37	0xbdfb9090	-0.122834325
38	0x3dcf20b6	0.10113661
39	0xbd6d5784	-0.05794479
40	0x3cfd0e20	0.030890524
41	0x3da799dc	0.08183643
42	0x3d93fe94	0.07226291
43	0xbccef178	-0.025261626
44	0x3d8e3e76	0.06945507
45	0xbd2c7d2c	-0.04211156
46	0x3dc1e712	0.09467901
47	0xbde1a772	-0.11018266
48	0x3dd532c4	0.104100734
49	0xbdb64656	-0.08900134
50	0xbc9cde48	-0.01914896
51	0xbdc66fd0	-0.09689295
52	0x3d371f10	0.044707358
53	0xbccc5628	-0.024943426
54	0xbddcef98	-0.107878864
55	0x3dccf4c4	0.10007623
56	0x3cecd7a0	0.028911412
57	0x3cc7b210	0.024376899
58	0xbd37c5f8	-0.044866532
59	0xbdbab7a2	-0.091170564
60	0xbdbb217c	-0.09137246
61	0xbd67ac5c	-0.05656086
62	0xbdb38298	-0.08765143
63	0x3ce85b70	0.028363913
64	0xbdabc8e8	-0.08387929
65	0xbded2268	-0.11578828
66	0x3d87681a	0.06611653
67	0x3c1c2030	0.0095291585
68	0x3da18b06	0.07887845
69	0xbdc0a3a6	-0.094062135
70	0xbda57ba8	-0.08080226
71	0x3dd812e6	0.105504796
72	0x3ce66fd8	0.028129503
73	0x3dfcf5b8	0.12351555
74	0x3d4674a0	0.048451066
75	0xbd6b980c	-0.05751805
76	0xbcd77ff8	-0.026306137
77	0x3d804a08	0.0626412
78	0xbd6ac524	-0.057316914
79	0xbd63ba68	-0.055597693
80	0x3d85dcce	0.06536256
81	0xbd5db4a4	-0.05412735
82	0xbdfe9c64	-0.12432173
83	0xbde4cb8e	-0.111716375
84	0x3d3361a0	0.043794274
85	0x3c3387a0	0.0109576285
86	0xbd8fae34	-0.070156485
87	0xbd938438	-0.07202953
88	0xbd9b6c1c	-0.075889796
89	0xbd4b7fc4	-0.049682394
90	0xbccb9df0	-0.024855584
91	0x3dd0b194	0.1019012
92	0xbd256a48	-0.04038456
93	0x3d6cf0e0	0.057846904
94	0xbd24e984	-0.04026176
95	0xbd0cb6f8	-0.03435418
96	0xbc2be8f0	-0.010492548
97	0x3dbf0794	0.09327617
98	0x3d7dfc40	0.062008142
99	0xbdffeb64	-0.12496069
100	0x3dc63926	0.09678869
101	0x3d8a746a	0.067604855
102	0xbc794c50	-0.015215948
103	0xbc8c7e88	-0.017150179
104	0xbc8eac00	-0.017416
105	0x3d530f30	0.051528156
106	0xbca632d0	-0.020287901
107	0xbcd80310	-0.026368648
108	0xbd9e233c	-0.07721564
109	0x3d2fbee4	0.042906657
110	0x3da16388	0.07880312
111	0x3df1b5fe	0.118022904
112	0xbd91dbdc	-0.07122013
113	0x3dbaf962	0.09129597
114	0x3d9b89e6	0.075946614
115	0xbdc73e4c	-0.09728679
116	0x3d9a0c90	0.07521927
117	0x3d9a68d2	0.07539524
118	0x3d7875cc	0.060659215
119	0xbdc2f92e	-0.095201835
120	0xbdc08bda	-0.094016746
121	0x3d68bb90	0.0568195
122	0xbd26e0d0	-0.04074174
123	0xbc5f6b10	-0.0136363655
124	0x3d8175d0	0.06321299
125	0xbddc6a2e	-0.1076244
126	0xbda973f6	-0.08274071
127	0xbce603c0	-0.02807796
128	0x3daed6fc	0.08537099
129	0x3d1a5fa8	0.03768888
130	0x3d130718	0.035895437
131	0xbdc0cfda	-0.094146445
132	0x3d874f6e	0.06606947
133	0x3d9ab5f6	0.075542375
134	0xbdf84e5a	-0.121243194
135	0xbc3d81c0	-0.011566579
136	0xbde49a82	-0.111622825
137	0xbd675c28	-0.05648437
138	0x3b6bed40	0.0035999566
139	0x3bb04780	0.005379617
140	0xbdd5b07c	-0.10434052
141	0xbd13fe3c	-0.03613113
142	0x3cab5f90	0.020919591
143	0x3d38d17c	0.045121655
144	0x3d9efade	0.07762693
145	0x3db1ecce	0.08687745
146	0x3db4881e	0.08815025
147	0x3d133b30	0.035945117
148	0x3cf19210	0.029488593
149	0x3da3b724	0.07993916
150	0x3d8256e4	0.06364229
151	0x3d118b38	0.03553316
152	0x3d991282	0.07474233
153	0xbde8d4fe	-0.1136875
154	0xbd5780a0	-0.0526129
155	0x3dbca106	0.092104
156	0xbdfb476e	-0.122694835
157	0x3cef4d90	0.02921179
158	0x3cd94918	0.026524112
159	0xbd942c94	-0.07235065
160	0xbdf91bb4	-0.12163487
161	0xbd6b3e60	-0.057432532
162	0xbbba7d60	-0.0056912154
163	0xbdfe104e	-0.124054536
164	0xbdbc4ae4	-0.09193972
165	0xbd1ba5f4	-0.038000062
166	0xbdcabb30	-0.098989844
167	0xbdbee0c2	-0.09320213
168	0x3d77c510	0.060490668
169	0xbdd42836	-0.10359232
170	0x3cc4e9f0	0.024037331
171	0xbcfbf198	-0.03075485
172	0xbc75e500	-0.015008211
173	0x3d978448	0.073982775
174	0x3d164158	0.03668341
175	0xbd95b164	-0.07309225
176	0xbd6827b8	-0.056678504
177	0xbc0493d0	-0.008091882
178	0xbde7bf18	-0.11315745
179	0x3c9c5f30	0.019088358
180	0xbde32afa	-0.110921815
181	0x3c0e7dc0	0.008696973
182	0xbdc68a98	-0.096944034
183	0xbdc9ce7e	-0.098538384
184	0x3cb43048	0.021995679
185	0x3db986ba	0.090589
186	0x3ccfe3d0	0.025377184
187	0x3d3926c0	0.04520297
188	0x3c440630	0.011964366
189	0x3d788dac	0.060681984
190	0x3abfe500	0.0014640391
191	0x3df824f8	0.12116426
192	0xbd590df8	-0.052991837
193	0x3d180850	0.037117302
194	0x3c312c80	0.010813832
195	0x3de88172	0.11352815
196	0xbcafbe80	-0.021453142
197	0x3da84454	0.082161576
198	0x3d92f27c	0.071751565
199	0xbd38b9c4	-0.045099035
200	0xbdf198e4	-0.1179674
201	0xbc7b1c10	-0.015326515
202	0xbb5e12c0	-0.0033885688
203	0xbd726a98	-0.059183687
204	0x3d65293c	0.055947527
205	0x3ce11a50	0.027478367
206	0xbb46f180	-0.0030356348
207	0xbdb60d54	-0.08889261
208	0x3ddd5506	0.108072326
209	0xbd8fe2ea	-0.07025702
210	0xbd423fac	-0.047424003
211	0x3ccaf430	0.02477464
212	0xbd6823c4	-0.056674734
213	0x3dfeb572	0.12436952
214	0x3d54bdf4	0.051938966
215	0xbdfe4fca	-0.12417562
216	0xbc9a4050	-0.018829495
217	0xbb20b640	-0.0024522692
218	0x3d0ca178	0.034333676
219	0x3dd75e56	0.1051604
220	0xbcd2f1a8	-0.025749996
221	0xbdbf3504	-0.09336284
222	0xbd34c56c	-0.04413359
223	0xbc985818	-0.018596694
224	0xbdbc5a6a	-0.091969326
225	0x3d8ccc00	0.068748474
226	0xbdc06a18	-0.09395236
227	0xbd522610	-0.05130583
228	0xbd4110c4	-0.04713513
229	0xbd07f51c	-0.03319274
230	0x3daa29d4	0.08308759
231	0x3da4afde	0.080413565
232	0x3dd40fa0	0.10354543
233	0x3c0c90d0	0.008579448
234	0x3db4d818	0.08830279
235	0x3db41dc6	0.08794741
236	0xbd8e4966	-0.069475934
237	0x3db407bc	0.08790538
238	0x3da73924	0.081651956
239	0xbd8a165c	-0.06742546
240	0x3d31cac8	0.043406278
241	0xbd06de6c	-0.03292696
242	0x3d571d78	0.052518338
243	0xba824180	-0.0009937733
244	0x3df189e8	0.11793882
245	0x3d8d9124	0.06912449
246	0x3cb426c0	0.021991134
247	0xbd1a06b8	-0.037604064
248	0xbc878ee8	-0.016547635
249	0x3db9a1f4	0.09064093
250	0xbdfcc6ae	-0.12342583
251	0xbd66befc	-0.05633448
252	0x3d903342	0.07041027
253	0xbd3f5f74	-0.04672189
254	0xbb47c7c0	-0.003048405
255	0xbca96928	-0.020680025

encoder_layer.linear2.bias f4 [10]
0	0xbd8bcee8	-0.068265736
1	0xbdcb9b56	-0.09941737
2	0x3d9f53b6	0.077796385
3	0x3defce36	0.117092535
4	0xbdefc402	-0.117073074
5	0x3daa4828	0.08314544
6	0xbd7f447c	-0.06232117
7	0xbd4f13a8	-0.050555855
8	0x3dbbc36a	0.09168132
9	0x3d37de3c	0.044889674

encoder_layer.norm1.weight f4 [10]
0	0x3f800000	1.0
1	0x3f800000	1.0
2	0x3f800000	1.0
3	0x3f800000	1.0
4	0x3f800000	1.0
5	0x3f800000	1.0
6	0x3f800000	1.0
7	0x3f800000	1.0
8	0x3f800000	1.0
9	0x3f800000	1.0

encoder_layer.norm1.bias f4 [10]
0	0x00000000	0.0
1	0x00000000	0.0
2	0x00000000	0.0
3	0x00000000	0.0
4	0x00000000	0.0
5	0x00000000	0.0
6	0x00000000	0.0
7	0x00000000	0.0
8	0x00000000	0.0
9	0x00000000	0.0

encoder_layer.norm2.weight f4 [10]
0	0x3f800000	1.0
1	0x3f800000	1.0
2	0x3f800000	1.0
3	0x3f800000	1.0
4	0x3f800000	1.0
5	0x3f800000	1.0
6	0x3f800000	1.0
7	0x3f800000	1.0
8	0x3f800000	1.0
9	0x3f800000	1.0

encoder_layer.norm2.bias f4 [10]
0	0x00000000	0.0
1	0x00000000	0.0
2	0x00000000	0.0
3	0x00000000	0.0
4	0x00000000	0.0
5	0x00000000	0.0
6	0x00000000	0.0
7	0x00000000	0.0
8	0x00000000	0.0
9	0x00000000	0.0

transformer.layers.0.self_attn.in_proj_weight f4 [30, 10]
0	0xbc7a6883	-0.015283707
1	0x3e79716e	0.24359676
2	0xbe80423a	-0.25050527
3	0x3e97de2b	0.29661688
4	0xbe93f762	-0.28899676
5	0x3dd547b7	0.10414069
6	0x3e50718c	0.20355815
7	0xbd23ef12	-0.040022917
8	0x3e51eb35	0.2049988
9	0xbdc51e38	-0.096249044
10	0x3e703d96	0.23460993
11	0x3e80d964	0.25165856
12	0xbd3d07bd	-0.046149958
13	0xbd14eefd	-0.03636073
14	0xbd70f8ff	-0.05883121
15	0x3cb20633	0.021731472
16	0x3e842709	0.2581103
17	0xbd927517	-0.07151239
18	0xbdd4e350	-0.10394919
19	0xbd77abfc	-0.06046675
20	0xbe2a1138	-0.16608131
21	0x3e915d65	0.28391567
22	0xbe455de3	-0.19274096
23	0xbd4ec0a9	-0.050476704
24	0x3d9d40aa	0.07678349
25	0x3ea5d0cd	0.32385865
26	0x3e353ac8	0.17698205
27	0xbe566607	-0.20937358
28	0xbeb4af4f	-0.3529
29	0xbe2e0477	-0.1699389
30	0xbe21e4b1	-0.15809895
31	0x3e9e76fc	0.30950153
32	0xbe3b957d	-0.18318744
33	0x3eb03891	0.34418157
34	0xbe8c214d	-0.27369156
35	0xbd45bb15	-0.04827412
36	0xbe4c406e	-0.19946453
37	0xbbb7952a	-0.0056024985
38	0x3ec644aa	0.38724262
39	0xbd5fa480	-0.05460024
40	0x3dd49053	0.1037909
41	0xbca6b17a	-0.0203483
42	0x3e8cf834	0.27533114
43	0x3eaccab6	0.33748406
44	0x3dd723d3	0.1050488
45	0xbe8e4ee2	-0.27794558
46	0x3e2921d8	0.16516817
47	0x3d4f52c6	0.05061605
48	0xbe981238	-0.297014
49	0x3d282cfa	0.041058518
50	0xbd0eb1ac	-0.03483741
51	0x3e794da1	0.2434602
52	0x3e9a1501	0.3009415
53	0xbe5429c7	-0.20719062
54	0xbe8784c3	-0.26468477
55	0xbe81006c	-0.25195634
56	0xbea5d17a	-0.3238638
57	0xbcaa6744	-0.020801194
58	0x3e35b8ca	0.17746273
59	0xbbdb3704	-0.006689908
60	0x3dc104fa	0.09424777
61	0x3e2c0e23	0.16802268
62	0xbcf4c4d1	-0.029879006
63	0xbe86d110	-0.26331377
64	0x3ddec9af	0.10878312
65	0xbea01ef1	-0.31273606
66	0x3ebf711d	0.37390986
67	0x3e98a112	0.29810387
68	0x3e05b450	0.13057065
69	0xbe8eeb62	-0.27913958
70	0x3dd5b578	0.10435003
71	0x3c00137e	0.007817147
72	0x3d598968	0.053109556
73	0x3ec2dcc6	0.38059062
74	0xbd912b3a	-0.07088323
75	0xbe73ab26	-0.23795757
76	0x3decf34c	0.11569843
77	0xbe942530	-0.28934622
78	0x3d1eec48	0.038799554
79	0x3e660489	0.22462668
80	0xbec4778f	-0.38372466
81	0x3e0858ef	0.13315175
82	0x3e1228d0	0.14273381
83	0xbe6f73d9	-0.23384036
84	0x3d1ecd5a	0.038770057
85	0x3e1dda40	0.15415287
86	0xbe056af1	-0.13029076
87	0xbe4b0acf	-0.19828342
88	0x3e3e94b1	0.18611409
89	0xbdf9dd29	-0.12200386
90	0x3e8fe6e4	0.28105843
91	0x3dd13b8c	0.10216436
92	0xbeac4cd7	-0.33652374
93	0xbdcc2485	-0.09967903
94	0xbda340c6	-0.07971339
95	0x3e1c2c3b	0.15251248
96	0x3d5b8e24	0.053602353
97	0x3e7da271	0.24768998
98	0xbe7604b0	-0.24025226
99	0x3d8ea5f1	0.069652446
100	0xbe0590cb	-0.13043515
101	0x3e497f6d	0.19677515
102	0x3e90db55	0.28292337
103	0xbe8095d1	-0.251143
104	0x3ea1a9b6	0.31574792
105	0xbe136b6c	-0.14396447
106	0xbcfbf5f4	-0.030756928
107	0x3d85cab1	0.06532801
108	0x3e864524	0.26224625
109	0xbe8295eb	-0.25505003
110	0xbe09acd7	-0.1344484
111	0x3e0a7dd5	0.13524564
112	0xbd55e7e9	-0.05222312
113	0x3e9d6c3b	0.30746636
114	0x3e82858e	0.2549252
115	0x3e6e2c9a	0.23259202
116	0x3e9765d2	0.2956987
117	0x3e83b207	0.25721762
118	0x3ec5e323	0.38649854
119	0xbeacea65	-0.3377258
120	0x3e9c499d	0.30524912
121	0xbe611c9f	-0.21983574
122	0xbe2ca333	-0.1685913
123	0x3d6cee7c	0.057844624
124	0x3cda533f	0.026651023
125	0xbe00da5c	-0.12583297
126	0x3e3619a4	0.17783219
127	0xbdb6edfe	-0.08932112
128	0xbd66fbcf	-0.056392487
129	0xbdc0bf99	-0.09411544
130	0x3e468c35	0.19389422
131	0x3df2aa66	0.11848907
132	0x3e317e2e	0.1733329
133	0x3ec36148	0.38160157
134	0x3ec4744e	0.38369983
135	0xbde0c463	-0.10974958
136	0x3eab3128	0.3343594
137	0x3db7b037	0.08969157
138	0x3e8faebb	0.28062996
139	0xbe9e16c4	-0.30876744
140	0x3dd46b90	0.103720784
141	0xbea5121b	-0.32240376
142	0x3db7ab52	0.08968224
143	0x3e676853	0.2259839
144	0x3b92bfba	0.004478422
145	0x3e46ff0b	0.19433229
146	0xbea95f04	-0.33080304
147	0x3e5e9243	0.21735482
148	0x3e831bbb	0.25607094
149	0x3e6abfd5	0.2292474
150	0xbdea861d	-0.11451361
151	0x3e619fab	0.22033565
152	0x3e8ac79f	0.27105424
153	0xbdf5702c	-0.11984286
154	0x3e01cc01	0.12675478
155	0xbec9c3c1	-0.3940716
156	0xbdba3dcb	-0.09093817
157	0xbe25fa54	-0.16208774
158	0xbea2ebed	-0.31820622
159	0xbdd4700b	-0.10372933
160	0x3e936eb1	0.28795388
161	0x3e524ffb	0.20538323
162	0x3ec1324b	0.37733683
163	0x3e980e26	0.29698294
164	0xbb7fc1fc	-0.0039025536
165	0xbdff3611	-0.12461484
166	0xbe9f3118	-0.31092143
167	0xbeb5e381	-0.35525134
168	0x3d31ca1c	0.043405637
169	0xbc98d99f	-0.018658457
170	0x3c3d87aa	0.011567989
171	0x3e70ccfa	0.23515692
172	0x3e6a27fb	0.22866814
173	0xbe120282	-0.14258769
174	0xbe4c63d8	-0.19959962
175	0x3e2ba0f2	0.16760615
176	0x3db22e49	0.087002344
177	0x3e0cf89c	0.13766712
178	0x3db81012	0.0898744
179	0x3df000e3	0.11718919
180	0x3e317b57	0.17332207
181	0xbb7d5c10	-0.003865961
182	0x3c908a90	0.017644197
183	0x3ea0e950	0.31428003
184	0x3ec27635	0.3798081
185	0x3e6dd5d1	0.23226096
186	0xbe098898	-0.13431013
187	0xbc451c83	-0.0120307235
188	0x3ccb6538	0.024828538
189	0x3eb1d10f	0.34729812
190	0xbc5a8d62	-0.013339372
191	0xbe0c54fe	-0.13704297
192	0xbe95d41c	-0.2926339
193	0x3d24e547	0.04025772
194	0xbe735842	-0.23764136
195	0x3eb4cd89	0.3531306
196	0xbd016f34	-0.031600192
197	0xbd0e91f7	-0.03480717
198	0x3eb2d808	0.34930444
199	0xbc6f3ec3	-0.014602366
200	0xbe2b340b	-0.16719072
201	0x3e3967d3	0.18106012
202	0x3c825834	0.0159112
203	0x3e3bfeaf	0.18358873
204	0x3e99a16b	0.30005965
205	0xbe31f32a	-0.17377916
206	0xbe849302	-0.25893408
207	0x3e59bd30	0.21263576
208	0xbe86f402	-0.26358038
209	0x3dc8a433	0.097969435
210	0x3e95ea6e	0.29280418
211	0xbe83149e	-0.25601667
212	0xbdfa93aa	-0.12235196
213	0x3df7a833	0.12092628
214	0xbdabf0b5	-0.083955206
215	0x3e369654	0.17830783
216	0x3e9828e5	0.297187
217	0x3ddbf072	0.10739221
218	0x3e2d13a7	0.16902028
219	0xbebb0105	-0.36524215
220	0xbd315054	-0.043289497
221	0xbea2707f	-0.31726453
222	0xbe8d7963	-0.27631673
223	0xbe1e4c65	-0.1545883
224	0x3e719975	0.23593695
225	0x3ec8185f	0.39081094
226	0x3eb4f99d	0.3534669
227	0x3eaa0cd4	0.33212912
228	0xbe9e244f	-0.30887076
229	0xbeaa4a85	-0.3325998
230	0x3e0fec37	0.14054953
231	0x3ebc842d	0.36819592
232	0xbe51bdb5	-0.20482524
233	0x3e89b5f3	0.2689663
234	0x3e4f5c57	0.20250069
235	0xbeabe959	-0.33576468
236	0xbe25dff7	-0.16198717
237	0x3e5ffd74	0.21874028
238	0xbd8f2f5c	-0.06991455
239	0x3b86008b	0.00408942
240	0xbe48643f	-0.19569491
241	0xbdd31010	-0.10305798
242	0x3e46eefb	0.19427101
243	0xbe1fa82b	-0.15591495
244	0x3b8e3157	0.004339378
245	0x3e12f91e	0.14352843
246	0x3ec2d692	0.3805433
247	0x3e1c15b9	0.15242662
248	0xbd3d5221	-0.046220902
249	0x3ea4fc14	0.3222357
250	0x3c0f0455	0.00872906
251	0x3e9ac4fb	0.3022841
252	0xbe6bac3c	-0.23014921
253	0xbcb65535	-0.022257427
254	0x3ec45821	0.38348487
255	0xbe355a8a	-0.17710319

transformer.layers.0.self_attn.in_proj_bias f4 [30]
0	0x3ad1e7b8	0.0016014492
1	0x3a1b0a9c	0.00059143617
2	0x3a065690	0.0005124593
3	0x3b8972b0	0.00419458
4	0x39933e24	0.00028084323
5	0x3bee6b1d	0.0072759525
6	0xbbe4a060	-0.006977126
7	0xbbfff245	-0.007810863
8	0x3bf21a1b	0.007388366
9	0xbbebc526	-0.007195133
10	0xb8e0933c	-0.00010708577
11	0xb952db3d	-0.00020108833
12	0xb9821af4	-0.00024815614
13	0x39366ced	0.0001739745
14	0xb9bcc516	-0.00036004995
15	0xba2fbf01	-0.0006704182
16	0x39ef9c09	0.00045701888
17	0xb9b56202	-0.00034596032
18	0x3a16bd54	0.0005750258
19	0xba096a0e	-0.00052419386
20	0x3b2bb9bd	0.0026203238
21	0x39ffc66c	0.00048785226
22	0xbc646d82	-0.013942124
23	0xbc66c969	-0.014086106
24	0xba3f5ead	-0.00073001796
25	0x3be44f3e	0.006967454
26	0xbaaa6b74	-0.0013001994
27	0x3c27b052	0.010234909
28	0xbac7ac63	-0.001523387
29	0xbbffea3c	-0.0078099053

transformer.layers.0.self_attn.out_proj.weight f4 [10, 10]
0	0xbe441e70	-0.19152236
1	0x3e645cc1	0.22301008
2	0x3d42ed25	0.04758944
3	0xbdca5c3e	-0.09880875
4	0xbcbf4f3d	-0.023353213
5	0x3e9eedbb	0.3104075
6	0xbe8eaa9b	-0.27864537
7	0x3c5efa51	0.013609485
8	0x3d3741ed	0.044740606
9	0xbe4b3a04	-0.1984635
10	0xbe7241b5	-0.23657878
11	0x3e816b1f	0.2527704
12	0xbc30c9c6	-0.010790294
13	0x3e08ce6d	0.13359995
14	0xbd8163c7	-0.06317859
15	0xbe63a601	-0.22231294
16	0xbe60c087	-0.21948443
17	0xbe845024	-0.25842392
18	0x3e4be564	0.19911724
19	0xbe8025a3	-0.25028715
20	0x3e8de7db	0.27715954
21	0xbdbf657f	-0.09345531
22	0xbe47fcd4	-0.1953004
23	0xbd185444	-0.037189737
24	0xbd2d953f	-0.04237866
25	0xbe83f1fb	-0.25770554
26	0xbe345e9d	-0.17614217
27	0xbe8de528	-0.27713895
28	0xbe81a586	-0.25321597
29	0xbe80bf06	-0.2514574
30	0x3d9e55e8	0.07731229
31	0x3786cd90	1.6069767e-05
32	0x3e3c5eda	0.18395558
33	0x3e62d90d	0.22153111
34	0x3c2ffd80	0.010741591
35	0x3e2b65f0	0.16738105
36	0xbd6b0403	-0.057376873
37	0x3e4bc394	0.19898826
38	0xbe700c55	-0.23442204
39	0x3d561a26	0.05227103
40	0xbdd35017	-0.1031801
41	0xbde40a19	-0.111347385
42	0xbe5d1af4	-0.21592313
43	0x3e07b2fa	0.13251868
44	0xbe3c76cd	-0.18404694
45	0x3e6d50f3	0.23175411
46	0x3e992cc3	0.29916963
47	0x3d89d3ba	0.06729837
48	0xbdf73aab	-0.12071737
49	0xbe80854b	-0.25101694
50	0xbdb62e98	-0.08895606
51	0xbe07015d	-0.13184114
52	0x3e0507af	0.12991212
53	0x3e129116	0.14313158
54	0x3dd3d584	0.10343459
55	0xbe8e08b0	-0.27741003
56	0x3e1a78bb	0.15085118
57	0xbe87062d	-0.263719
58	0x3e9d45a7	0.30717203
59	0x3dba759b	0.09104463
60	0xbe32cd27	-0.17461072
61	0xbe88570f	-0.2662892
62	0xbbff4495	-0.007790158
63	0x3e6d3845	0.23165996
64	0x3e531027	0.2061163
65	0x3e7c46d4	0.24636394
66	0x3e6a581d	0.22885175
67	0xbe9abb91	-0.30221227
68	0x3e2c819b	0.16846316
69	0xbd0a16bf	-0.0337131
70	0x3e51852e	0.2046096
71	0xbe83b6f3	-0.25725517
72	0x3e31a349	0.17347445
73	0xbe9f74fb	-0.31143937
74	0xbe81269c	-0.2522477
75	0x3c9aab10	0.018880397
76	0xbdaf2d12	-0.08553518
77	0xbe2e4c8a	-0.17021385
78	0x3e2c0bfd	0.16801448
79	0xbd49c68a	-0.049261607
80	0xbc643e19	-0.013930821
81	0xbdb2c7b1	-0.08729494
82	0x3e81c45a	0.25345117
83	0xbe939b7c	-0.28829563
84	0x3e4e00ba	0.20117465
85	0xbe754295	-0.2395118
86	0x3e2879bf	0.16452692
87	0xbe0ee89c	-0.13955921
88	0x3c9c753c	0.01909887
89	0x3e880501	0.26566318
90	0xbbef4cd9	-0.007302862
91	0x3e9cf8e6	0.30658644
92	0x3e280756	0.16409048
93	0x3e05f315	0.1308101
94	0x3e9b44f8	0.30326056
95	0x3e6d1f4f	0.23156475
96	0xbdbad1ec	-0.09122071
97	0xbe4f66cf	-0.20254062
98	0xbd97797c	-0.07396218
99	0xbe821cd9	-0.25412634

transformer.layers.0.self_attn.out_proj.bias f4 [10]
0	0x3a791a58	0.0009502522
1	0xbbca8505	-0.006180408
2	0x3b1dbdad	0.0024069354
3	0xbc8b5bda	-0.017011572
4	0x3c231ceb	0.009955625
5	0xbb498ac0	-0.0030752867
6	0xbb2bbed5	-0.0026206274
7	0x3ad22c66	0.001603496
8	0xbc041ec4	-0.008063976
9	0x3adab653	0.0016686417

transformer.layers.0.linear1.weight f4 [64, 10]
0	0xbe5bb01a	-0.21453896
1	0x3dd6c454	0.10486665
2	0x3c9efd40	0.019407868
3	0xbe592965	-0.21207197
4	0xbe94c338	-0.2905519
5	0x3cac48f0	0.021030873
6	0x3d77c7d0	0.06049329
7	0xbd869e70	-0.06573188
8	0xbd97eae0	-0.07417846
9	0xbd723230	-0.059129894
10	0xbd15655e	-0.036473624
11	0x3e98b383	0.29824457
12	0xbd3bfa4f	-0.04589301
13	0xbd31d59f	-0.043416616
14	0x3e204b0d	0.1565363
15	0xbd7adbce	-0.06124478
16	0xbc2f4446	-0.01069743
17	0xbe74643f	-0.23866366
18	0x3e5a151a	0.21297112
19	0x3d3179f7	0.043329205
20	0xbdee7aa4	-0.116444856
21	0x3e80024e	0.25001758
22	0x3e107fd8	0.14111269
23	0x3cfbf24c	0.030755185
24	0xbe8f1704	-0.27947247
25	0xbe5e321b	-0.21698801
26	0x3dec5d8a	0.11541279
27	0x3d988e2d	0.07448993
28	0x3d9e3c12	0.07726301
29	0x3ad6e006	0.0016393668
30	0x3e0cf280	0.13764381
31	0xbdaab662	-0.08335568
32	0x3e2bb6d4	0.16768962
33	0x3e34ccb0	0.17656207
34	0xbe9a29c6	-0.30109996
35	0xbdd90798	-0.105971515
36	0x3e3073c8	0.17231667
37	0xbdb98c1e	-0.09059928
38	0x3e04fb66	0.12986526
39	0xbe8cb658	-0.27482867
40	0xbe9c69f6	-0.30549592
41	0x3e67dfb2	0.22643927
42	0xbe5a87f5	-0.21340926
43	0xbdb1e0b9	-0.086854406
44	0x3e575870	0.2102983
45	0x3d378eed	0.04481404
46	0x3e096b00	0.13419724
47	0xbcb0a092	-0.02156094
48	0x3e8c6210	0.27418566
49	0x3e73a80b	0.23794572
50	0xbdb904b1	-0.09034098
51	0x3e6d13af	0.2315204
52	0x3b2e03dc	0.0026552593
53	0x3dd6e50f	0.10492908
54	0x3c5594d6	0.0130359735
55	0x3e688162	0.22705606
56	0xbdac5547	-0.08414703
57	0xbda5d9f4	-0.08098212
58	0xbe973796	-0.29534596
59	0xbe617ee7	-0.22021066
60	0x3e265293	0.16242437
61	0xbe456b07	-0.19279109
62	0xbe27a4b2	-0.1637142
63	0xbd0698d0	-0.032860577
64	0xbe5b8f09	-0.21441282
65	0x3df89d8d	0.121394254
66	0xbe3b41de	-0.18286845
67	0xbe63a1e2	-0.22229722
68	0x3e5e214c	0.21692389
69	0xbe578bd9	-0.21049441
70	0xbe9e5ca7	-0.30930063
71	0xbe3065a2	-0.1722627
72	0x3d97dea4	0.07415512
73	0x3d538a20	0.0516454
74	0xbe9cbcbd	-0.30612746
75	0x3e97a885	0.29620758
76	0x3dd107d8	0.10206574
77	0xbddb5e64	-0.10711363
78	0xbd2231c8	-0.039598256
79	0x3e8daf07	0.27672598
80	0xbdde378e	-0.1085044
81	0x3e40b6f2	0.18819788
82	0xbd90a6ec	-0.07063088
83	0xbe9daef2	-0.30797535
84	0xbe8efff3	-0.2792965
85	0xbcccee30	-0.02501592
86	0xbda981c8	-0.08276707
87	0xbd4f2090	-0.050568163
88	0xbe1a0c36	-0.1504372
89	0x3e685cd6	0.22691664
90	0x3e8361f9	0.25660685
91	0x3d89f8d4	0.06736913
92	0xbe8dccd6	-0.2769534
93	0xbe4601f2	-0.1933668
94	0xbe800f38	-0.2501161
95	0x3d9ec404	0.07752231
96	0x3e001752	0.12508896
97	0xbe6a357f	-0.2287197
98	0xbe4bfe4a	-0.19921222
99	0x3e476a4e	0.19474146
100	0x3df9b062	0.121918455
101	0xbe37dc59	-0.1795515
102	0x3e1722ce	0.1475937
103	0x3d4da97e	0.05021047
104	0x3da81a94	0.082081944
105	0xbe4cbe34	-0.19994432
106	0x3e5a776b	0.21334617
107	0xbe49b230	-0.1969688
108	0x3e1d00f5	0.15332396
109	0xbe61c844	-0.22049052
110	0x3c2b1220	0.010441333
111	0xbdf675f6	-0.12034218
112	0xbcd9c430	-0.026582807
113	0x3e70311a	0.23456231
114	0xbe69ee23	-0.22844748
115	0x3e98f49f	0.2987413
116	0xbe9ec643	-0.31010637
117	0xbe6d9629	-0.23201813
118	0x3d570c88	0.052502185
119	0xbdba068a	-0.090832785
120	0x3de2f1b8	0.110812604
121	0x3bf73ac0	0.0075448453
122	0x3e5cf4b6	0.21577725
123	0x3e8f0ead	0.27940884
124	0xbe40e38f	-0.18836807
125	0xbdac7f9c	-0.08422777
126	0xbd114720	-0.03546822
127	0x3d83e488	0.06440073
128	0xbe6c32ae	-0.23066208
129	0x3e78d69e	0.2430062
130	0x3e1dc6d7	0.15407883
131	0x3e415039	0.18878259
132	0xbcbb8f58	-0.0228955
133	0x3e924846	0.28570765
134	0x3e9d8285	0.3076364
135	0xbd85007f	-0.06494235
136	0xbd9d1355	-0.07669703
137	0xbe9be919	-0.30451277
138	0x3e18ca09	0.1492082
139	0x3d8c9c6d	0.06865773
140	0xbe5baf43	-0.21453576
141	0xbe8acff9	-0.27111796
142	0xbe21d338	-0.1580323
143	0x3e8a762a	0.27043277
144	0xbcd8fefa	-0.02648877
145	0xbe5f647b	-0.21815674
146	0xbe9638f4	-0.29340327
147	0xbe2006b6	-0.1562756
148	0xbda947ec	-0.08265671
149	0xbdfc56a9	-0.123212166
150	0x3c9a22f0	0.018815488
151	0x3e9f8800	0.31158447
152	0xbe00faad	-0.12595625
153	0x3e40fbb5	0.18846019
154	0xbcc0e6f7	-0.023547633
155	0x3e567d3c	0.2094621
156	0x3dda70b0	0.10666025
157	0xbe31ef82	-0.17376521
158	0x3e23269d	0.15932699
159	0xbdf70418	-0.12061328
160	0x3d1e1088	0.038589984
161	0x3e9496b1	0.29021218
162	0x3e897a57	0.2685115
163	0xbe24c520	-0.16090822
164	0x3e786e02	0.24260715
165	0x3e778b6c	0.24174279
166	0x3e28cd1c	0.16484493
167	0xbd89ae26	-0.06722669
168	0xbc18f27d	-0.009335157
169	0x3e16bb3f	0.14719866
170	0xbd310a58	-0.043222755
171	0x3dc2f406	0.095192
172	0xbe1441f2	-0.14478281
173	0x3de640f6	0.11242859
174	0xbda3dfd2	-0.08001675
175	0xbe91374d	-0.28362504
176	0x3e84c066	0.25928038
177	0x3da74d12	0.08168997
178	0xbe21e36d	-0.15809412
179	0x3d414620	0.047186017
180	0xbe80fa52	-0.2519098
181	0x3e551d7c	0.20812029
182	0xbc6c07aa	-0.014406124
183	0xbe8bd129	-0.27308014
184	0x3e465718	0.19369161
185	0xbce7b32a	-0.028283674
186	0x3e5045c3	0.20339112
187	0x3e5319d6	0.20615324
188	0x3e9520f8	0.29126716
189	0x3dc8797b	0.097887956
190	0x3ea2a2a4	0.3176471
191	0xbdd5c8e2	-0.10438706
192	0xbe5b6df4	-0.21428663
193	0xbdc56c6d	-0.09639821
194	0xbd895a20	-0.06706643
195	0x3e88d2f1	0.26723436
196	0x3e0bc1d4	0.13648158
197	0x3e9049b9	0.28181246
198	0xbe1a0bab	-0.15043513
199	0xbe8c4f67	-0.2740433
200	0xbe88578c	-0.26629293
201	0xbc17d686	-0.009267455
202	0xbe800513	-0.2500387
203	0x3d9c4340	0.076300144
204	0xbe9bf46a	-0.3045991
205	0xbe3bf3e9	-0.18354763
206	0x3e9cc557	0.30619308
207	0x3e684229	0.22681488
208	0x3df9815f	0.12182879
209	0x3e2a3b7f	0.16624258
210	0xbe3863a4	-0.1800676
211	0xbe97afa8	-0.29626203
212	0xbe137066	-0.14398345
213	0x3e3eb838	0.18624961
214	0xbd24c3d1	-0.040225808
215	0xbdf99d0e	-0.12188159
216	0xbe168a51	-0.14701201
217	0xbe860e2b	-0.26182684
218	0xbe8ef1eb	-0.27918944
219	0xbe2191d4	-0.15778285
220	0x3e6613e0	0.22468519
221	0x3c2ec685	0.010667448
222	0xbe63f35c	-0.22260803
223	0xbd00da6a	-0.031458296
224	0xbbb1c5c2	-0.005425186
225	0xbe0fdf30	-0.14049983
226	0x3e865561	0.26237014
227	0x3e904e8c	0.28184927
228	0x3e66ee28	0.22551787
229	0x3df6fd13	0.12059989
230	0xbea212a7	-0.31654856
231	0xbe091c3b	-0.13389675
232	0xbe481c12	-0.19541958
233	0x3e40973d	0.18807693
234	0xbe8f76e1	-0.28020385
235	0x3e4ee1d1	0.2020333
236	0x3c31ffbe	0.010864196
237	0x3e388bfc	0.1802215
238	0x3e02854b	0.1274616
239	0x3dd03b26	0.10167532
240	0xbcaba4c2	-0.020952586
241	0x3e92df82	0.28686148
242	0x3e3ec660	0.18630362
243	0xbd463d20	-0.048398137
244	0x3e0c5e05	0.1370774
245	0x3eaf403b	0.3422869
246	0xbe473afa	-0.19456092
247	0xbe7214a7	-0.2364069
248	0xbe9aa952	-0.30207306
249	0x3e6de9d1	0.23233725
250	0xbe336dda	-0.17522374
251	0xbe34fb1d	-0.17673917
252	0x3e3205d6	0.17385039
253	0xbe79850a	-0.24367157
254	0xbd851444	-0.06498006
255	0xbe0e270e	-0.13882086
